results/model.pth (torch, 90223 bytes, 8 tensors)

conv1.weight f4 [10, 1, 5, 5]
0.07805006 -0.15764937 -0.10413989 -0.19244958 -0.25778133 -0.032205004 -0.3473954 -0.49109605
-0.19185743 -0.35069564 0.2652081 -0.29865548 -0.32287684 -0.19613941 0.17579292 0.41415328
0.26635125 0.38318333 0.2825944 0.37597385 0.03518802 0.51822317 0.38487533 0.39507326
0.04551352 0.22542487 0.1870571 0.45973566 0.32936496 0.1572487 0.07742418 0.25524315
0.28822413 0.27178112 0.42143795 -0.07168641 -0.15993713 -0.13023546 -0.031731244 0.12637448
-0.3068153 -0.3682176 -0.43482724 -0.4530919 -0.27869508 0.01575054 -0.23287638 -0.07506073
-0.08019346 -0.0549381 -0.27585644 -0.23333889 -0.34115106 -0.30978784 -0.053972017 -0.08182189
-0.29191035 -0.16762547 -0.123684935 -0.24613512 0.12232113 -0.036788605 -0.0733465 0.022539949
0.26439992 0.18085988 0.18869188 0.25904736 0.21476808 0.3185846 -0.015575304 0.20698172
0.36780113 0.11911903 0.20185336 -0.28854305 0.14747949 0.37649307 0.38776055 0.084943384
0.10959391 0.4409291 0.42796773 0.33397943 -0.08643767 0.05260524 0.48590225 0.14891933
-0.1510981 -0.27442446 0.28116554 0.37248176 -0.054492615 0.072238676 -0.15404767 0.1955828
0.0023127294 -0.06194141 -0.26640508 -0.06829041 -0.008389243 0.18371955 0.06854717 0.10080773
-0.18919419 -0.09241873 -0.10304603 -0.043285936 0.0095675215 -0.010503644 0.22754464 0.26860222
0.054386195 0.2953034 0.30709067 0.0058581475 0.12693611 0.12223513 0.3338251 0.10594859
0.12376769 -0.3340077 -0.29792237 -0.11318353 -0.0046237693 -0.21845466 0.102962516 0.10571236
0.085610494 -0.08675534 -0.17529082 -0.19779217 -0.11936153 -0.07174141 -0.18870845 -0.10344472
0.034356162 -0.16515945 -0.16910307 -0.11750931 -0.021917284 -0.027805738 -0.20508035 0.013609563
0.028669924 -0.18794371 -0.020734191 -0.11464203 -0.08272957 0.17519811 0.29479885 0.26986858
-0.1380483 -0.16413787 0.2255515 0.22754776 0.093631305 -0.053625748 0.008686158 0.0746005
0.042476796 -0.1045447 -0.108839445 0.052814703 0.15218686 0.004619716 -0.040862065 -0.1736187
-0.08840864 -0.071304545 0.06629497 -0.15966083 -0.2575117 -0.116714664 -0.28383815 -0.1699296
-0.032163907 -0.21745561 -0.16521825 -0.15862353 -0.025633546 -0.008156721 -0.14923479 -0.18000895
0.14642201 -0.0072742444 -0.063050106 0.019479873 -0.14585412 -0.07811225 -0.013415711 0.1751688
0.021705305 -0.1413368 -0.12716536 -0.15262476 -0.07579499 0.09649359 0.080034204 -0.21334065
-0.22867967 -0.07362026 -0.037824642 0.3819685 0.26114976 -0.11522587 -0.27212057 0.09298666
0.05146813 0.33028927 -0.33388752 -0.13173702 -0.071819834 0.24408811 0.34308448 -0.25954926
-0.18884547 -0.1438237 0.2007703 0.41730016 -0.18255064 -0.1417595 0.003723555 0.033609323
0.28262877 0.21365917 -0.057487413 -0.13586806 -0.161309 -0.09319739 0.36318907 0.15618828
-0.37145913 -0.214239 -0.27313367 0.35011283 0.52598 0.024637425 -0.35275286 -0.12532581
0.195309 0.39269876 0.390704 0.23822019 -0.07727301 -0.13097884 0.32129982 0.39985165
0.17312731 0.107659206
00000000: b6d8 9f3d d66e 21be 4b47 d5bd 8111 45be
00000010: eafb 83be 65e9 03bd cfdd b1be f170 fbbe
00000020: 4676 44be 618e b3be 5bc9 873e 5fe9 98be
00000030: 1d50 a5be c5d8 48be 0f03 343e e60b d43e
00000040: 315f 883e 9b30 c43e 37b0 903e a57f c03e
00000050: 5021 103d 46aa 043f 610e c53e 0b47 ca3e
00000060: 626c 3a3d c7d5 663e e58b 3f3e 7962 eb3e
00000070: 86a2 a83e ce05 213e 9290 9e3d 3baf 823e
00000080: 1d92 933e e526 8b3e b7c6 d73e 53d0 92bd
00000090: 8fc6 23be 725c 05be 9ff8 01bd 5068 013e
000000a0: e516 9dbe 0487 bcbe ada1 debe a9fb e7be
000000b0: 1fb1 8ebe 4707 813c 2577 6ebe 71b9 99bd
000000c0: 783c a4bd c606 61bd 0e3d 8dbe 64f0 6ebe
000000d0: 5aab aebe 839c 9ebe c311 5dbd 3c92 a7bd
000000e0: 4675 95be 03a6 2bbe 874e fdbd d80a 7cbe
000000f0: 8083 fa3d a6af 16bd b136 96bd b3a5 b83c
00000100: 6d5f 873e 5533 393e 7238 413e dba1 843e
00000110: 2aec 5b3e 851d a33e 8f2f 7fbc 04f3 533e
00000120: 6e50 bc3e aef4 f33d a6b2 4e3e eabb 93be
00000130: dd04 173e b3c3 c03e 8d88 c63e ccf6 ad3d
00000140: c672 e03d 76c1 e13e 961e db3e 5aff aa3e
00000150: 3c06 b1bd 9878 573d 2ec8 f83e 4f7e 183e
00000160: 76b9 1abe 5d81 8cbe eef4 8f3e eeb5 be3e
00000170: a633 5fbd dff1 933d acbe 1dbe dc46 483e
00000180: 2991 173b 47b6 7dbd 3f66 88be d8db 8bbd
00000190: 0973 09bc fa20 3c3e 7562 8c3d 4874 ce3d
000001a0: 1fbc 41be 0846 bdbd cc09 d3bd 984c 31bd
000001b0: 18c1 1c3c 7a17 2cbc 7601 693e 3b86 893e
000001c0: 0fc4 5e3d 0232 973e fd3a 9d3e b4f5 bf3b
000001d0: 8afb 013e 6956 fa3d 20eb aa3e 93fb d83d
000001e0: ea79 fd3d 0f03 abbe 4889 98be c4cc e7bd
000001f0: fd82 97bb 94b2 5fbe 03de d23d b97f d83d
00000200: 8e54 af3d c9ac b1bd 707f 33be 088a 4abe
00000210: d173 f4bd 29ed 92bd ca3c 41be d3da d3bd
00000220: 0cb9 0c3d 8f1f 29be 5b29 2dbe b9a8 f0bd
00000230: e08b b3bc dcc8 e3bc 9500 52be a5fa 5e3c
00000240: 30dd ea3c 5174 40be c0da a9bc 71c9 eabd
00000250: 1f6e a9bd 2267 333e e0ef 963e 372c 8a3e
00000260: 895c 0dbe c213 28be f9f6 663e 4802 693e
00000270: c5c1 bf3d aca6 5bbd 6350 0e3c 26c8 983d
00000280: 26fc 2d3d 881b d6bd 37e7 debd 3b54 583d
00000290: dfd6 1b3e fd60 973b fb5e 27bd 1ac9 31be
000002a0: 970f b5bd 1e08 92bd a8c5 873d 217e 23be
000002b0: 93d8 83be 1908 efbd 3c53 91be 0602 2ebe
000002c0: 4dbe 03bd afac 5ebe f92e 29be 356e 22be
000002d0: 71fd d1bc c4a3 05bc 01d1 18be 4454 38be
000002e0: a7ef 153e c95c eebb 6a20 81bd 4194 9f3c
000002f0: c85a 15be 51f9 9fbd 92cd 5bbc 735f 333e
00000300: 53cf b13c 98ba 10be a337 02be aa49 1cbe
00000310: 673a 9bbd 6e9e c53d f9e8 a33d f975 5abe
00000320: 012b 6abe 38c6 96bd 03ee 1abd 6091 c33e
00000330: 6cb5 853e 8afb ebbd 6353 8bbe ca6f be3d
00000340: 3fd0 523d ad1b a93e 4ef3 aabe 12e6 06be
00000350: 4716 93bd 3cf2 793e c5a8 af3e a4e3 84be
00000360: b560 41be 8546 13be bb96 4d3e 5ea8 d53e
00000370: 8eee 3abe 6729 11be e306 743b eea9 093d
00000380: b8b4 903e 78c9 5a3e ec77 6bbd ff20 0bbe
00000390: 302e 25be 46de bebd ebf3 b93e d2ef 1f3e
000003a0: e42f bebe 7861 5bbe 2dd8 8bbe fd41 b33e
000003b0: a0a6 063f 6dd4 c93c 069c b4be 6955 00be
000003c0: 15ff 473e d00f c93e 5b0a c83e feef 733e
000003d0: 5041 9ebd 511f 06be 6981 a43e 5bb9 cc3e
000003e0: 4948 313e 6e7c dc3d

conv1.bias f4 [10]
0.13277353 0.055854965 0.16583467 -0.07101776 0.18216988 -0.018130995 -0.113276936 -0.12603772
-0.16179289 0.2328456
00000000: c9f5 073e 2dc8 643d 90d0 293e c271 91bd
00000010: be8a 3a3e 7487 94bc bdfd e7bd 0810 01be
00000020: 09ad 25be 146f 6e3e

conv2.weight f4 [20, 10, 5, 5]
-0.004002371 -0.1019591 -0.015576032 -0.031008076 -0.003840405 0.08189152 0.118813865 0.07952734
-0.06337744 0.0037199827 -0.004914404 -0.0060162926 -0.025282936 0.052845247 -0.17453931 -0.039302696
-0.037564162 0.15727057 0.22896709 0.033719428 0.1072239 0.08343854 0.10187936 -0.04780294
0.031741153 -0.057132006 -0.090387985 -0.021528315 -0.10262571 0.024906369 0.0028862492 0.052093014
0.033939943 0.10869486 0.023752954 0.045872685 0.02684037 0.051632475 0.09053235 -0.0235583
0.044180535 0.019487789 -0.081331894 -0.004473698 -0.13146196 -0.025898855 0.029435208 0.02742711
0.07657391 0.043024756 -0.08888353 -0.07543017 0.016706213 0.0010477318 -0.048245043 0.037527587
0.0283852 0.020567099 -0.058087606 -0.009092457 0.028417423 -0.0037072187 -0.03755792 -0.07588304
-0.15739451 -0.03331564 -0.060319044 -0.033656802 0.12284903 -0.017279217 0.015273822 0.049737446
-0.039930243 0.029727984 0.015892152 -0.043016095 0.05137983 -0.007146792 -0.021913115 0.17696467
0.06038491 -0.06374706 0.02829812 -0.020809827 -0.06280646 0.020695303 -0.0073777023 -0.03510954
-0.116431944 -0.085198954 -0.018005906 0.0021069609 -0.09665949 -0.06479026 -0.05350596 -0.12423261
-0.10435165 -0.0497388 0.05063761 0.07714569 -0.020507425 -0.016192166 0.006814945 -0.014391415
-0.029747024 -0.010266596 -0.01587554 -0.01695626 0.10154482 -0.0031773392 0.03622214 0.08378683
-0.028088657 -0.031788457 -0.06600624 0.040667467 0.0150752505 0.005582543 0.007849458 0.015145693
-0.04586199 0.0698975 0.10286163 0.019494547 -0.043455977 0.045387227 -0.046806965 -0.020904306
-0.06015286 -0.04520507 0.02899783 0.03610044 0.020446071 -0.010508249 -0.06535725 0.021400241
0.023327943 -0.0043632137 -0.020183647 -0.047521643 -0.0024438775 -0.014894426 -0.05483076 0.016878163
0.049009822 0.048767384 -0.008942779 -0.0483325 -0.020421421 -0.012087454 -0.078822374 -0.03084189
-0.024136512 -0.017021174 0.05333421 -0.046636134 -0.005487476 0.06339341 0.032163717 -0.04837456
-0.037642702 0.024912827 -0.029188754 -0.035564892 -0.07925802 -0.035410304 -0.044245683 -0.051267218
-0.055305976 -0.021215538 -0.023465956 -0.03554506 0.012367873 0.022764064 0.10281745 0.0083846385
-0.056039475 0.037601795 -0.02265854 0.004466553 0.0118473 -0.060000665 -0.03901855 -0.06598124
-0.016118236 0.008532665 -0.06594155 0.064255886 0.055890474 0.037258893 -0.043565568 -0.035153296
-0.014024236 0.045638252 -0.03250343 0.02642887 -0.022479622 0.020032626 -0.07578507 -0.024179056
0.020426061 0.024276476 -0.0041590603 0.15142635 -6.2484425e-05 -0.007761582 0.01566415 0.05711771
0.033970427 -0.03448132 -0.11821184 0.0056081084 -0.117220424 -0.009948494 -0.06028353 -0.07894115
-0.011438849 -0.053124163 -0.026195591 -0.14313671 0.023911593 -0.078960404 -0.10455527 -0.15223013
-0.05009254 -0.08674013 -0.08026481 -0.08105652 -0.03143778 0.066979654 -0.08244659 -0.108742386
-0.035408784 0.0012915921 0.14247765 0.0011926129 0.02130958 0.09210027 0.0053026313 -0.05217042
0.097937815 0.06527734 0.18454506 0.16229826 -0.02190465 0.1266855 0.088873096 0.078742065
-0.034056902 -0.07685812 0.0203416 -0.026022987 -0.075686574 -0.07384584 -0.047345955 -0.05472415
00000000: 5226 83bb efcf d0bd 9d32 7fbc a604 febc
00000010: 4eaf 7bbb beb6 a73d af54 f33d 3bdf a23d
00000020: 08cc 81bd f4ca 733b 0209 a1bb 5224 c5bb
00000030: 291e cfbc 4274 583d 6fba 32be ddfb 20bd
00000040: e1dc 19bd 890b 213e 5976 6a3e 621d 0a3d
00000050: 3498 db3d d3e1 aa3d 20a6 d03d 04cd 43bd
00000060: 0303 023d 4003 6abd 561d b9bd 265c b0bc
00000070: 6e2d d2bd 7108 cc3c 3a27 3d3b 7c5f 553d
00000080: 9c04 0b3d 699b de3d 8e95 c23c ffe4 3b3d
00000090: 56e0 db3c 937c 533d 0669 b93d 56fd c0bc
000000a0: a6f6 343d dba4 9f3c 5691 a6bd 1998 92bb
000000b0: f79d 06be d629 d4bc 1b22 f13c d2ae e03c
000000c0: c8d2 9c3d ba3a 303d 9108 b6bd 227b 9abd
000000d0: 78db 883c 0c54 893a 989c 45bd 87b6 193d
000000e0: 1488 e83c 557c a83c 45ed 6dbd 87f8 14bc
000000f0: a8cb e83c cff4 72bb 55d6 19bd 9168 9bbd
00000100: 072c 21be fb75 08bd 1a11 77bd b7db 09bd
00000110: 4698 fb3d 258d 8dbc 0d3f 7a3c 7eb9 4b3d
00000120: e58d 23bd 1a88 f33c 4230 823c a531 30bd
00000130: a873 523d a32f eabb 2283 b3bc 3a36 353e
00000140: 2b56 773d d28d 82bd 75d1 e73c 5f79 aabc
00000150: aca0 80bd 3289 a93c a7c0 f1bb 05cf 0fbd
00000160: df73 eebd ca7c aebd 1f81 93bc f014 0a3b
00000170: 69f5 c5bd c1b0 84bd 1129 5bbd ab6d febd
00000180: 51b6 d5bd e9ba 4bbd 6269 4f3d 8ffe 9d3d
00000190: 30ff a7bc 6fa5 84bc e74f df3b f8c9 6bbc
000001a0: 08b0 f3bc 3a35 28bc 6c0d 82bc dbe7 8abc
000001b0: bbf6 cf3d e83a 50bb ab5d 143d 6e98 ab3d
000001c0: 2f1a e6bc 9d34 02bd 482e 87bd ee92 263d
000001d0: 2ffe 763c c4ed b63b 039b 003c a425 783c
000001e0: c8d9 3bbd 6c26 8f3d 1ea9 d23d 07b3 9f3c
000001f0: e5fe 31bd f5e7 393d a9b8 3fbd 823f abbc
00000200: d862 76bd f428 39bd db8c ed3c 0ede 133d
00000210: 857e a73c ca2a 2cbc 06da 85bd 8f4f af3c
00000220: 3e1a bf3c 4af9 8ebb 2d58 a5bc 0ea6 42bd
00000230: 7629 20bb c007 74bc 3896 60bd 1344 8a3c
00000240: 86be 483d 4fc0 473d bc84 12bc 4df8 45bd
00000250: d34a a7bc 750a 46bc a06d a1bd 22a8 fcbc
00000260: efb9 c5bc fd6f 8bbc f974 5a3d 8805 3fbd
00000270: 49d0 b3bb 67d4 813d 1abe 033d 6724 46bd
00000280: 3c2f 1abd fc15 cc3c 411d efbc 7eac 11bd
00000290: 0752 a2bd 650a 11bd f63a 35bd 93fd 51bd
000002a0: 8588 62bd 35cc adbc ad3b c0bc b297 11bd
000002b0: 9fa2 4a3c b47b ba3c f591 d23d b95f 093c
000002c0: a689 65bd 5704 1a3d 679e b9bc 2a5c 923b
000002d0: 2e1b 423c 42c3 75bd ead1 1fbd 2c21 87bd
000002e0: 640a 84bc 97cc 0b3c 5d0c 87bd 9798 833d
000002f0: 69ed 643d c89c 183d cf71 32bd e7fc 0fbd
00000300: e9c5 65bc 2def 3a3d 5122 05bd 5c81 d83c
00000310: 2f27 b8bc 761b a43c 3435 9bbd 2813 c6bc
00000320: 8e54 a73c 76df c63c ba48 88bb 820f 1b3e
00000330: 120a 83b8 de54 febb 1a52 803c 43f4 693d
00000340: 9324 0b3d 493c 0dbd 0d19 f2bd 39c4 b73b
00000350: 4311 f0bd 02ff 22bc ddeb 76bd e6ab a1bd
00000360: 036a 3bbc b998 59bd 2398 d6bc 6e92 12be
00000370: 3fe2 c33c feb5 a1bd 1321 d6bd 37e2 1bbe
00000380: d62d 4dbd cfa4 b1bd e061 a4bd f600 a6bd
00000390: e7c4 00bd a12c 893d c2d9 a8bd 54b4 debd
000003a0: cd08 11bd a44a a93a a9e5 113e 7351 9c3a
000003b0: 6e91 ae3c 119f bc3d b2c1 ad3b a6b0 55bd
000003c0: 9f93 c83d 20b0 853d 61f9 3c3e 8431 263e
000003d0: 6171 b3bc d8b9 013e 1903 b63d 8543 a13d
000003e0: 407f 0bbd ca67 9dbd 6da3 a63c 292e d5bc
000003f0: 9001 9bbd 7d3c 97bd d5ed 41bd 6e26 60bd

conv2.bias f4 [20]
0.010802463 0.014541945 0.01929443 -0.0039043203 -0.01062053 -0.029096242 -0.011899223 -0.050267573
0.028474744 -0.034987975 -0.009350141 -0.034953553 -0.033049256 -0.054942857 -0.021019898 0.048912458
0.011181733 -0.012139905 0.034295306 0.047061477
00000000: d0fc 303c 5741 6e3c 5a0f 9e3c a0df 7fbb
00000010: bb01 2ebc 3e5b eebc f5f4 42bc 5fe5 4dbd
00000020: de43 e93c 8d4f 0fbd 5531 19bc 752b 0fbd
00000030: a85e 07bd c30b 61bd ec31 acbc 6e58 483d
00000040: 9633 373c 74e6 46bc 3c79 0c3d 89c3 403d

fc1.weight f4 [50, 320]
-0.0040412443 -0.015561946 0.07109858 -0.012397769 -0.009524895 -0.015957037 0.07467659 -0.06787126
-0.024441937 -0.031730324 0.079923205 0.0067571686 0.06613538 0.06204529 0.035932552 -0.00051882333
-0.03647542 0.064356625 0.044988297 0.05246174 -0.039354134 -0.032518037 0.09419977 0.19657679
-0.09104741 0.04314797 -0.014308195 -0.057337373 0.006945027 0.013255334 0.012286118 0.07082199
-0.034683175 -0.086275816 -0.09394726 -0.04449726 -0.051034342 -0.087518565 -0.0021149204 0.0057730437
-0.07621384 -0.07428925 0.1380663 0.056180704 -0.016412472 0.04664739 0.0036983064 -0.013223311
0.009941097 0.005740077 -0.060871534 -0.031116314 0.09440354 0.024511073 -0.04009787 0.023551568
0.07944701 0.1129638 0.10254826 0.056310482 0.016175115 0.035731815 -0.047964144 -0.081858836
-0.05245097 -0.08922597 -0.008088577 -0.08808636 0.06208466 0.03599076 0.033639967 0.019385325
0.0261667 0.07333574 0.090117015 -0.04402577 0.024024865 0.021771964 -0.043894853 -0.07046962
0.0108392835 -0.021752277 0.024981158 0.04505746 -0.14060466 -0.087306656 -0.03820065 -0.062029827
0.024561452 -0.00085723243 -0.053220738 0.0053959936 0.06316806 0.026912132 0.017726442 -0.051802874
0.007730999 -0.08446443 0.034866836 -0.045929067 -0.038244955 -0.06584397 -0.050957475 0.057974
-0.050942652 -0.103542164 0.08858165 0.04007762 -0.039277505 0.045474198 0.041326176 -0.05880006
-0.065437764 -0.00031741962 0.03653884 0.03818417 0.10277713 0.006639514 0.027163362 -0.021199165
4.699913e-05 0.023643637 0.1330361 0.010354323 0.0750991 -0.07105015 -0.07375584 -0.036811825
0.0076350733 -0.011015101 -0.016256504 -0.028986339 0.046712648 0.04261975 0.01631107 -0.0010321554
0.052360028 -0.0034787818 0.025720572 -0.0037883653 -0.008009831 0.026305439 0.001235743 0.03603039
0.00072523195 -0.013014882 -0.069735155 -0.015146946 -0.041375063 -0.029772487 -0.0329223 -0.06677342
0.032477874 0.061119318 0.017453976 -0.08424088 0.042542417 0.00507348 -0.014072704 -0.07014989
0.03963935 -0.09511006 -0.00055230793 0.011026526 -0.0362139 -0.0035742808 0.091561265 0.049955416
-0.012320128 -0.011651425 -0.059587076 0.031147812 0.020278744 0.03357037 -0.02687399 0.052993555
0.04857402 -0.0054026768 -0.047670193 -0.109831505 -0.0005031043 -0.022494087 -0.021590214 -0.01889975
-0.07714212 -0.010929662 0.03191806 -0.07176652 0.054901723 -0.006630549 -0.018026238 -0.07268821
-0.010376129 -0.091488674 0.024282122 -0.082484454 0.032274727 0.056292597 0.009979678 0.0063414196
-0.022683362 -0.06402369 0.0050288467 0.0006370654 0.04599158 -0.021416977 -0.050234932 -0.079489194
-0.03118918 -0.0713303 -0.031241149 0.007550176 0.033755932 0.03600465 0.0032151574 -0.021465965
0.037643258 -0.011821776 0.04917286 -0.044788472 0.005075677 -0.009958234 -0.014167124 -0.060193166
0.029281935 0.018617518 -0.027219817 0.020344347 0.01025284 0.051455267 -0.033819348 0.022388384
-0.06834618 0.03636877 0.025247443 -0.021968251 -0.039852917 -0.039213903 0.01163086 0.03471473
-0.06136166 -0.014743594 0.056811746 0.02236645 0.016624808 0.0262472 0.045999154 0.05217483
0.021587117 0.06052504 -0.006656222 0.09920149 0.004292473 -0.056809895 -0.0028047594 -0.02987779
00000000: 6a6c 84bb 88f7 7ebc 229c 913d 0320 4bbc
00000010: 4e0e 1cbc 55b8 82bc 0af0 983d 1600 8bbd
00000020: 753a c8bc a8f7 01bd c7ae a33d 3d6b dd3b
00000030: fc71 873d 3423 7e3d 032e 133d a501 08ba
00000040: 4067 15bd 68cd 833d a645 383d 1fe2 563d
00000050: cd31 21bd a231 05bd cfeb c03d 6d4b 493e
00000060: 1177 babd edbb 303d eb6c 6abc 98da 6abd
00000070: 1c93 e33b e72c 593c b74b 493c 1f0b 913d
00000080: f20f 0ebd 60b1 b0bd 6c67 c0bd c242 36bd
00000090: 6309 51bd ef3c b3bd 7a9a 0abb cd2b bd3b
000000a0: 0016 9cbd f624 98bd 4161 0d3e bd1d 663d
000000b0: 7373 86bc 5511 3f3d 495f 723b 96a6 58bc
000000c0: fcdf 223c 4117 bc3b 6e54 79bd a4e7 febc
000000d0: a556 c13d 72cb c83c aa3d 24bd 38ef c03c
000000e0: 1db5 a23d 9159 e73d d204 d23d d2a5 663d
000000f0: ad81 843c 865b 123d 0d76 44bd 9ba5 a7bd
00000100: d4d6 56bd 1bbc b6bd f385 04bc 9f66 b4bd
00000110: 7c4c 7e3d 0c6b 133d 10ca 093d f9cd 9e3c
00000120: 8c5b d63c 0c31 963d 458f b83d 5e54 34bd
00000130: cbcf c43c 1e5b b23c 17cb 33bd 6052 90bd
00000140: 4097 313c d531 b2bc 49a5 cc3c 2c8e 383d
00000150: abfa 0fbe d5cd b2bd 4978 1cbd fd12 7ebd
00000160: 1935 c93c e5b7 60ba fdfd 59bd e0d0 b03b
00000170: 415e 813d d576 dc3c 0b37 913c 402f 54bd
00000180: 5254 fd3b b0fb acbd 87d0 0e3d 1e20 3cbd
00000190: bea6 1cbd 34d9 86bd c9b8 50bd 2576 6d3d
000001a0: 3ea9 50bd ea0d d4bd 4c6a b53d 6e28 243d
000001b0: 73e1 20bd 2743 3a3d a345 293d 55d8 70bd
000001c0: 3c04 86bd 576b a6b9 c0a9 153d 0167 1c3d
000001d0: d17c d23d 4890 d93b b385 de3c dfa9 adbc
000001e0: ee20 4538 4db0 c13c 9e3a 083e 2ea5 293c
000001f0: 8fcd 993d be82 91bd 4d0d 97bd ffc7 16bd
00000200: a32f fa3b af78 34bc 5c2c 85bc c274 edbc
00000210: c355 3f3d 0c92 2e3d cb9e 853c 6349 87ba
00000220: 7877 563d 46fc 63bb f3b3 d23c 3946 78bb
00000230: ab3b 03bc 817e d73c a8f8 a13a 9a94 133d
00000240: 7e1d 3e3a 5f3c 55bc 4ed1 8ebd e52a 78bc
00000250: e678 29bd 6ee5 f3bc 89d9 06bd 81c0 88bd
00000260: 8507 053d 4058 7a3d a4fb 8e3c 7c86 acbd
00000270: f540 2e3d 6f3f a63b 3391 66bc bfaa 8fbd
00000280: df5c 223d 10c9 c2bd c2c8 10ba 9aa8 343c
00000290: 0755 14bd 7b3e 6abb 7984 bb3d 0d9e 4c3d
000002a0: 5dda 49bc 9ee5 3ebc 9411 74bd b229 ff3c
000002b0: 9c1f a63c 1681 093d d826 dcbc c50f 593d
000002c0: 8df5 463d f008 b1bb d241 43bd 57ef e0bd
000002d0: c2e2 03ba 8545 b8bc f6dd b0bc a6d3 9abc
000002e0: b0fc 9dbd 5312 33bc 83bc 023d 53fa 92bd
000002f0: a1e0 603d 1445 d9bb c3ab 93bc 8edd 94bd
00000300: a400 2abc 6a5e bbbd 4deb c63c 9ced a8bd
00000310: 8132 043d 1193 663d ce81 233c afcb cf3b
00000320: 75d2 b9bc da1e 83bd 06c9 a43b bc00 273a
00000330: ab61 3c3d a872 afbc 25c3 4dbd 3bcb a2bd
00000340: 7480 ffbc 9f15 92bd 70ed ffbc 7767 f73b
00000350: a943 0a3d 9d79 133d 64b5 523b 64d9 afbc
00000360: d12f 1a3d 1fb0 41bc 7b69 493d 1e74 37bd
00000370: dd51 a63b dc27 23bc 3a1d 68bc 1c8d 76bd
00000380: abe0 ef3c c483 983c 18fc debc 30a9 a63c
00000390: 87fb 273c c2c2 523d 2886 0abd d867 b73c
000003a0: 15f9 8bbd 6bf7 143d bad3 ce3c c3f6 b3bc
000003b0: d03c 23bd c29e 20bd 5d8f 3e3c 0831 0e3d
000003c0: 5d56 7bbd 1e8f 71bc 6fb3 683d d839 b73c
000003d0: c030 883c 5e04 d73c 9c69 3c3d 46b5 553d
000003e0: 77d7 b03c 1be9 773d 701c dabb 272a cb3d
000003f0: e0a7 8c3b 7eb1 68bd 0ed0 37bb 44c2 f4bc

fc1.bias f4 [50]
-0.022014359 -0.035351932 0.026625972 -0.0039260024 -0.0069486476 0.037080575 -0.022813447 0.00052652194
0.053139668 0.010233575 0.025551274 0.0006257931 -0.024932122 -0.037173387 -0.011721581 -0.015011296
-0.03523994 -0.050548073 -0.042587437 0.0403959 0.04950976 -0.011592392 -0.014940105 0.026832847
0.03803298 0.047022406 -0.022205453 0.024540123 -0.02668348 0.013589127 -0.020323822 0.06267592
-0.013112709 -0.03337085 -0.020648008 -0.009329459 -0.020386606 -0.020376991 -0.028421255 0.037581466
0.022780068 0.051408008 -0.00766786 0.0052793473 0.046259645 -0.009055601 -0.05446278 0.05925717
0.040008087 0.0066055064
00000000: 7557 b4bc 30cd 10bd b61e da3c b2a5 80bb
00000010: 7bb1 e3bb cde1 173d 44e3 babc 4a06 0a3a
00000020: fba8 593d b9aa 273c e850 d13c 440c 243a
00000030: 733e ccbc 1f43 18bd e00b 40bc f0f1 75bc
00000040: c157 10bd 7f0b 4fbd 2a70 2ebd 2c76 253d
00000050: bfca 4a3d 04ee 3dbc 58c7 74bc 8fd0 db3c
00000060: 78c8 1b3d 919a 403d 36e8 b5bc 5e08 c93c
00000070: 5097 dabc eea4 5e3c 257e a6bc 3c5c 803d
00000080: b0d6 56bc dfaf 08bd 0326 a9bc 96da 18bc
00000090: d001 a7bc a6ed a6bc b1d3 e8bc 06ef 193d
000000a0: 449d ba3c 3491 523d ac42 fbbb 60fe ac3b
000000b0: c17a 3d3d f25d 14bc 5d14 5fbd a5b7 723d
000000c0: 85df 233d 0173 d83b

fc2.weight f4 [10, 50]
-0.190225 -0.05685246 -0.27008057 0.09821815 0.24722424 -0.18460284 0.2110606 0.19088519
-0.18909368 0.09171348 0.085868895 -0.20585789 0.13494992 -0.06622902 0.0482983 0.017117169
-0.33915174 0.13961942 0.18380462 0.12581813 -0.28806502 0.22077589 0.13250102 -0.13194296
0.027730422 -0.08423992 0.28260761 0.23254228 -0.05013451 0.29859036 0.019407319 -0.13405673
-0.11339995 -0.255513 0.1153505 -0.14268067 -0.109242395 -0.19979197 -0.07699292 0.03017831
-0.20637038 0.023400867 0.11059544 -0.00011239958 0.037735276 -0.06754413 0.23197086 -0.11177586
0.2113177 -0.19998813 0.17119057 0.020299537 0.1969535 0.20970385 -0.1294717 0.2485295
-0.2259842 0.1849888 -0.22827923 0.11861609 -0.103828646 -0.18053286 0.16605434 -0.1568737
-0.026824757 -0.13032648 0.10426003 -0.25559327 -0.18932769 -0.3118095 0.18440858 -0.20243719
-0.29735845 -0.24378845 -0.16656788 -0.0596715 0.2422018 -0.08641083 0.29596874 -0.082588784
-0.123780444 0.31791776 -0.22905163 0.15201601 0.12681095 -0.045889724 -0.2329371 0.14247389
0.07136066 -0.2564347 0.21810642 -0.2595958 -0.13857889 -0.095625795 0.009332856 0.2310508
-0.22735512 0.21682946 0.21054898 0.074194275 -0.231217 0.0010030993 -0.15792476 -0.21706715
-0.21641612 0.2627944 -0.18561085 0.18801685 -0.097204134 -0.027617624 0.102913596 -0.004457381
-0.17911358 -0.06106994 -0.08154106 -0.017415388 -0.30741724 -0.19500318 0.17080267 -0.025457205
-0.19691128 0.211805 0.09589313 -0.0114332745 -0.1548811 0.20594576 -0.14335302 -0.10464528
0.31577685 -0.09235657 0.13272412 -0.07007373 0.16205272 0.14650826 0.15942243 0.15512188
-0.24764371 -0.23939644 0.13204135 0.23525672 -0.0450618 -0.06869623 -0.11327486 0.23727202
-0.08325383 0.23226322 0.014223464 -0.019678177 0.18506181 0.1153189 0.14718662 0.004482571
-0.29397193 0.24895419 -0.19770098 0.22081685 -0.17407121 -0.041588802 -0.13709743 0.033351157
0.12909028 0.14721438 -0.18600966 0.28061444 -0.03729028 0.05187349 0.10182505 0.088965625
-0.27980435 0.14355087 -0.1306419 -0.13035364 0.03839162 -0.1162306 0.195662 0.20300299
-0.16505386 -0.16327547 0.10131675 -0.095001325 0.03522159 -0.09260991 -0.21047285 -0.05477832
-0.19794233 0.12830706 -0.13901995 0.17780378 0.16747445 0.23413353 -0.14210826 -0.11195136
-0.123967975 0.17260517 0.115390815 -0.17384382 0.2015074 0.25288352 -0.21494396 0.17790224
0.18897179 0.45156428 0.19896625 -0.15517491 -0.06729283 -0.040782433 -0.15792331 -0.1468232
0.26950502 -0.06824715 -0.20020302 -0.16992356 0.017422099 -0.14586683 0.0049206633 -0.12763108
0.105983056 0.130718 -0.06411763 -0.1795958 0.20058261 -0.046089757 -0.28635418 0.22398931
0.2483587 -0.21024838 -0.08443206 -0.07436799 -0.12896958 0.03074699 0.02554123 0.012723092
0.23149562 -0.07257317 0.047883246 -0.31604552 -0.10123552 0.0393982 -0.24864705 -0.03517993
0.22283348 0.22866793 0.06507343 0.21378233 -0.032361098 -0.10815966 -0.18451048 -0.021600012
0.2038953 -0.047776423 -0.06056199 -0.02487817 -0.22594796 0.28088358 0.2412564 -0.12528801
00000000: 58ca 42be 20de 68bd 0048 8abe 9926 c93d
00000010: 5a28 7d3e 8708 3dbe 4520 583e 6877 433e
00000020: c6a1 41be 47d4 bb3d 08dc af3d 69cc 52be
00000030: 5030 0a3e 15a3 87bd 70d4 453d 4e39 8c3c
00000040: 4ca5 adbe 65f8 0e3e 4737 3c3e 78d6 003e
00000050: 427d 93be 1313 623e 59ae 073e 0e1c 07be
00000060: e92a e33c fb85 acbd f2b1 903e 901f 6e3e
00000070: d859 4dbd d6e0 983e 19fc 9e3c 2b46 09be
00000080: 3c3e e8bd 9ad2 82be e23c ec3d e21a 12be
00000090: 7aba dfbd 4496 4cbe 77ae 9dbd 8138 f73c
000000a0: c252 53be 2db3 bf3c dd7f e23d 11b8 ebb8
000000b0: 4e90 1a3d 9454 8abd c589 6d3e beea e4bd
000000c0: ab63 583e b0c9 4cbe 954c 2f3e 374b a63c
000000d0: 2eae 493e 9bbc 563e 3b94 04be 847e 7e3e
000000e0: 6768 67be b46d 3d3e 08c2 69be feec f23d
000000f0: 1da4 d4bd 9bdd 38be 260a 2a3e 80a3 20be
00000100: 98bf dbbc 4e74 05be 4886 d53d 1fdd 82be
00000110: 1edf 41be 7fa5 9fbe 9ad5 3c3e b24b 4fbe
00000120: 5e3f 98be aea3 79be c590 2abe 1a6a 74bd
00000130: c003 783e 29f8 b0bd 3789 973e 4f24 a9bd
00000140: 9a80 fdbd 1ec6 a23e 838c 6abe 16aa 1b3e
00000150: bbda 013e ddf6 3bbd 1087 6ebe ade4 113e
00000160: 8a25 923d 694b 83be 4a57 5f3e bee9 84be
00000170: a0e7 0dbe 75d7 c3bd d6e8 183c 9598 6c3e
00000180: c8cf 68be 8b08 5e3e 279a 573e 2bf3 973d
00000190: 26c4 6cbe 6d7a 833a 07b7 21be da46 5ebe
000001a0: 309c 5dbe fd8c 863e c510 3ebe 7d87 403e
000001b0: f612 c7bd 5b3e e2bc 5dc4 d23d 390f 92bb
000001c0: 8d69 37be 7924 7abd 00ff a6bd b7aa 8ebc
000001d0: cb65 9dbe eaae 47be e5e6 2e3e a18b d0bc
000001e0: 1ca3 49be 69e3 583e 9e63 c43d a152 3bbc
000001f0: 2799 1ebe 72e3 523e 22cb 12be 4450 d6bd
00000200: 81ad a13e 7125 bdbd d5e8 073e d182 8fbd
00000210: 26f1 253e 4306 163e a23f 233e 45d8 1e3e
00000220: 5096 7dbe 5724 75be d935 073e 23e7 703e
00000230: b992 38bd 9cb0 8cbd a6fc e7bd 70f7 723e
00000240: fc80 aabd 69d6 6d3e 8809 693c 2134 a1bc
00000250: d880 3d3e 512c ec3d 17b8 163e 88e2 923b
00000260: 7d83 96be d9ed 7e3e 2072 4abe d01d 623e
00000270: b93f 32be 0559 2abd 4563 0cbe 399b 083d
00000280: 3e30 043e 5ebf 163e 5179 3ebe b2ac 8f3e
00000290: b1bd 18bd 4c79 543d a789 d03d 9c33 b63d
000002a0: 8442 8fbe 00ff 123e fdc6 05be 6d7b 05be
000002b0: 8840 1d3d 4f0a eebd 9f5b 483e 04e0 4f3e
000002c0: e103 29be af31 27be 287f cf3d 0e90 c2bd
000002d0: 8444 103d 44aa bdbd 3286 57be 3b5f 60bd
000002e0: 65b1 4abe ed62 033e 3f5b 0ebe 3212 363e
000002f0: 6c7e 2b3e b3c0 6f3e d484 11be c146 e5bd
00000300: ece2 fdbd 69bf 303e 0552 ec3d 1d04 32be
00000310: f557 4e3e f379 813e 451a 5cbe 012c 363e
00000320: d281 413e 6f33 e73e cfbd 4b3e 2ce6 1ebe
00000330: d3d0 89bd 7b0b 27bd a6b6 21be d258 16be
00000340: 90fc 893e 29c5 8bbd 0502 4dbe 7100 2ebe
00000350: cab8 8e3c 1d5e 15be 843d a13b b9b1 02be
00000360: a50d d93d f0da 053e 1b50 83bd f6e7 37be
00000370: 8765 4d3e 9dc8 3cbd 049d 92be 745d 653e
00000380: be51 7e3e 5a4b 57be b7ea acbd 3f4e 98bd
00000390: 9a10 04be 1de1 fb3c d73b d13c 8474 503c
000003a0: 300d 6d3e 3ea1 94bd 3921 443d b8d0 a1be
000003b0: 9154 cfbd 0260 213d 559d 7ebe d518 10bd
000003c0: 762e 643e ed27 6a3e 3845 853d c1e9 5a3e
000003d0: 128d 04bd d082 ddbd 51f0 3cbe 82f2 b0bc
000003e0: eec9 503e 36b1 43bd d90f 78bd 4ecd cbbc
000003f0: e75e 67be f9cf 8f3e eb0b 773e 804b 00be

fc2.bias f4 [10]
-0.018467743 0.2093834 0.12898235 -0.06456522 -0.017231008 -0.04445032 -0.097545154 -0.14163695
0.01516224 0.15726435
00000000: aa49 97bc 9a68 563e f313 043e c53a 84bd
00000010: 0b28 8dbc 8a11 36bd c1c5 c7bd 4709 11be
00000020: 0b6b 783c e809 213e
